models/fizz_buzz_train10000.pth (torch, 82475 bytes, 6 tensors)

l1.weight f4 [256, 12]
000000 37 6e ba 3e e7 17 b3 be 61 85 30 be d5 8f 37 3e
       0.36412212 -0.34979174 -0.1723838 0.17925961
000010 df ff 1f be 0d c0 2d 3e f4 93 1b be ed 81 11 3e
       -0.15624951 0.16967793 -0.15193158 0.14209719
000020 c5 8b 27 be a5 3f 37 3e 9b 2d 2b be 1b a2 a8 3c
       -0.16361912 0.17895372 -0.16716616 0.02058511
000030 62 a8 99 bb e1 16 55 bc 4a 11 06 bc 87 15 74 bc
       -0.0046892622 -0.013005943 -0.008182833 -0.014897711
000040 d4 b1 72 bc b2 59 7e bb f3 a8 93 3a 7f 42 f2 bb
       -0.014812905 -0.0038810787 0.0011265561 -0.007393181
000050 85 11 1d bc 3c e4 ea bb 8e 67 bc bb 55 4d f0 bb
       -0.0095866965 -0.007168321 -0.0057496494 -0.0073334374
000060 42 de 3c 3e 84 77 39 3e aa c2 2d be c3 e6 98 be
       0.1844416 0.18111998 -0.1696879 -0.29863557
000070 3c 26 36 3e 07 b7 04 bf 54 d6 2e be 6b 10 2c be
       0.17788023 -0.5184178 -0.17073947 -0.16803138
000080 4b ab 51 3e af 03 60 3e 89 a7 2d be 0b 96 9d be
       0.204755 0.21876405 -0.16958441 -0.30778536
000090 0f 12 cf 3d d2 d8 ce bd 1c eb ce 3d 55 d6 ca bd
       0.10110866 -0.10099949 0.10103437 -0.09904162
0000a0 c9 05 cf 3d d2 f1 c9 bd 7a 06 cf 3d dd 35 64 3e
       0.10108525 -0.09860577 0.10108657 0.22286172
0000b0 f8 dd ce 3d df 0c c8 bd ce f2 d3 3d 2f d9 ce bd
       0.10100931 -0.0976808 0.10349046 -0.10100018
0000c0 ae be ed bd 3c 4a f1 3d 47 27 14 3e 76 b5 28 bd
       -0.11608635 0.11781737 0.14468108 -0.04118868
0000d0 9e 0e b8 3d c2 24 20 3d 88 09 fc 3a 30 a8 15 be
       0.08987163 0.039097555 0.0019228915 -0.1461494
0000e0 a5 0a 17 3c 90 1a 5e 3e 76 db 89 3d 56 d3 08 3e
       0.009218846 0.2168982 0.06731312 0.13361868
0000f0 ce 85 34 be 7e 88 c7 3d 06 2a 5b 3e dc 74 88 bd
       -0.17629167 0.09742831 0.2140275 -0.06662914
000100 55 72 26 be fb 89 01 3e 71 f1 5d 3e 9f 21 9b bd
       -0.16254552 0.12650292 0.21674134 -0.07574772
000110 27 21 2c be 69 aa e1 3d 05 cc 57 3e 7f 3d 62 bd
       -0.16809522 0.11018831 0.21073921 -0.05523443
000120 d4 77 82 3d 91 aa 91 bd 6f 5c 77 3d 4a 94 8a bd
       0.06370512 -0.07112611 0.060390886 -0.06766565
000130 ec 33 b5 3d 92 32 87 bd 22 d2 64 3d 11 10 29 3e
       0.08847794 -0.066014424 0.05586446 0.16510035
000140 da 8e 8a 3d 48 85 ad bd 9e e1 90 3d 18 27 7e bd
       0.06765528 -0.08472687 0.07074283 -0.062049
000150 39 8f f9 3c 1a a5 22 3c 28 91 af bc ae a8 a1 ba
       0.030463802 0.009927059 -0.02143152 -0.0012333596
000160 6f 3b f1 3d a2 ce 7a bb 9d bb c7 bc cf 99 cf 3d
       0.11778914 -0.0038270135 -0.024381453 0.101367585
000170 91 de b2 3d 47 6a 6b bd ee a9 22 3d 72 c2 44 3d
       0.087338574 -0.0574744 0.03971284 0.048037
000180 f5 4c 10 bc 4c 86 5a bc 4d 63 28 bc 23 03 79 bb
       -0.0088074105 -0.013337683 -0.010277581 -0.0037996254
000190 9d a7 ac bb 2e c4 61 bb 7a 73 b8 bb 0d 42 f9 bb
       -0.0052690045 -0.0034449208 -0.0056290003 -0.007606751
0001a0 ab f5 1b bc 1b b3 13 bc 64 75 3f bc ea bc 5f 38
       -0.009519021 -0.00901487 -0.011685703 5.3343283e-05
0001b0 82 7a 92 be 74 7a 92 3e 7c 7a 92 be 84 7a 92 3e
       -0.2860909 0.2860905 -0.28609073 0.28609097
0001c0 7f 7a 92 be 88 7a 92 3e 75 7a 92 be 86 7a 12 bf
       -0.28609082 0.2860911 -0.28609052 -0.57218206
0001d0 7c 7a 92 be 80 7a 92 3e 7b 7a 92 be 7a 7a 92 3e
       -0.28609073 0.28609085 -0.2860907 0.28609067
0001e0 27 ff a0 bd e6 5e db 3c f6 5b aa bc 43 3a ae 3d
       -0.078611664 0.02677865 -0.020795804 0.08507206
0001f0 13 9f 8d be d8 b8 de bd 3c 89 93 bd f5 73 95 3e
       -0.27660426 -0.108751 -0.0720391 0.2919003
000200 9f 01 75 be a4 0d 16 be 11 93 85 bd 56 b5 bd 3d
       -0.239264 -0.14653641 -0.06522191 0.09263103
000210 dd 50 b8 3c 3f 4a 2b bd 95 97 12 3d 9c d7 71 bc
       0.022499496 -0.041818853 0.03578909 -0.014760878
000220 3b af 00 3e 3c 49 c4 3c 3d 1f a9 bc 28 f1 0b 3e
       0.12566845 0.023960702 -0.020644778 0.13666213
000230 19 8f cb 3d dd 78 9f bd a6 17 a0 3d cb 47 f8 3c
       0.09939403 -0.07786725 0.078170106 0.030307671
000240 15 19 b9 3b c5 9d bb 3d ab a4 ac 3d 09 95 08 3d
       0.005648742 0.091609515 0.084298454 0.033345256
000250 32 5f 19 3e 40 8c cd 3d 99 b0 97 3c 18 e1 22 3c
       0.1497772 0.10036516 0.018516826 0.009941362
000260 cc ed e0 3d 12 d7 d2 3d 35 4a 02 3d 85 15 9e 3d
       0.10982856 0.10294928 0.03180905 0.07718948
000270 f8 65 c9 bb 25 3f 83 bd 49 8b b1 bb d2 9b 3d bb
       -0.006146189 -0.06408528 -0.0054182154 -0.0028931987
000280 c5 a4 cd 3d 0f a3 92 bd 60 52 ea bc c4 53 05 3e
       0.10041193 -0.07160007 -0.028603733 0.13020235
000290 66 b6 b8 3d e0 6f ea bd 0b d6 54 3d 9f d2 df 3c
       0.09019165 -0.1144712 0.05196194 0.027322112
0002a0 e3 55 b3 3c f8 b5 fb 3d 8f 24 a7 bd 5e ff e3 3b
       0.02189154 0.12290567 -0.0816127 0.0069579324
0002b0 6b ad d5 3d 54 e9 d7 bd 45 ad 77 bd 07 34 04 3e
       0.104334675 -0.10542551 -0.060467977 0.12910472
0002c0 d0 75 a9 bc 8a 00 18 3d c7 21 90 bd 4d 37 cd 3d
       -0.02068606 0.03710989 -0.070376925 0.100203134
0002d0 8c b1 b3 3d 2e b1 b3 bd 89 b1 33 be 5b b1 33 3e
       0.08774099 -0.08774029 -0.17548193 0.17548124
0002e0 67 b1 b3 3d 72 b1 b3 bd 8c b1 33 be 77 b1 b3 be
       0.08774071 -0.087740794 -0.17548198 -0.35096332
0002f0 bc b1 b3 3d 49 b1 b3 bd 8c b1 33 be 7c b1 33 3e
       0.087741345 -0.08774049 -0.17548198 0.17548174
000300 4b d3 67 3d bf d0 bc bc 56 5c d5 3d b9 22 81 bc
       0.05659799 -0.023048757 0.10418002 -0.015763627
000310 cc 67 10 3e 7e de f7 3c 76 bf 5a 3d 98 05 2f 3e
       0.14102095 0.03025746 0.053405248 0.17091978
000320 48 f4 02 3e 6a 2b fe bc 5d 31 31 3e 78 ad 0e 3d
       0.12788498 -0.03102656 0.17303987 0.0348334
000330 b4 6c 79 3e da d2 61 be 78 0a 69 3e 3b 88 5f be
       0.24357873 -0.2205309 0.227579 -0.21829312
000340 20 62 7c 3e 62 19 79 be b1 28 6c 3e c0 11 0b 3f
       0.24646807 -0.24326089 0.23062398 0.5432396
000350 93 46 80 3e ea b5 65 be bb 13 60 3e d2 2d 64 be
       0.25053844 -0.22432676 0.21882527 -0.22283104
000360 60 be 6d 3d 9e 75 41 bd af 0c d3 bb af a4 2c bd
       0.058042884 -0.04723131 -0.006440721 -0.042149242
000370 1f 2d c4 3d 77 e0 5b bd 4c ea 05 ba e1 a7 38 3e
       0.09578919 -0.053680863 -0.00051084603 0.1803279
000380 e3 b4 bd 3d 76 5d c6 bd 78 81 ac 3d 37 9c a6 bb
       0.09263017 -0.09685795 0.08423132 -0.00508454
000390 cb 0c 6f 3e 83 d2 6d be 70 5b 7b 3e d2 d8 76 be
       0.23344724 -0.23224835 0.245466 -0.24106148
0003a0 5f 28 7a 3e 9d 36 8a be 7d 0f 75 3e aa f3 0f 3f
       0.24429463 -0.26994792 0.2393169 0.56231177
0003b0 1d 70 75 3e 26 23 6a be 17 af 76 3e 23 25 7b be
       0.23968549 -0.2286497 0.24090229 -0.24525885
0003c0 51 1a 41 3e 08 bb 85 bd 86 fd 13 be 7d 20 43 3d
       0.18857695 -0.06529814 -0.1445218 0.047638405
0003d0 db 66 45 bd 95 d9 3b bd eb 14 11 be a2 60 4e 3d
       -0.048193794 -0.0458618 -0.14168136 0.050385125
0003e0 05 71 48 bd 28 9f b5 bd e7 3d 1c be 69 fe 3f bd
       -0.04893591 -0.08868247 -0.15257989 -0.046873484
0003f0 13 33 73 be 82 b7 88 3e 10 75 98 3d 4c 1c 8d bd
       -0.23749952 0.26702505 0.07444203 -0.06890163

l1.bias f4 [256]
000000 10 fd 98 3e 44 84 0a bc 9e e6 99 3d c1 28 97 3e
       0.2988057 -0.008454386 0.0751469 0.2952328
000010 6f 61 f1 3e 4a e8 1e 3e 8a 81 61 3e 53 42 65 3e
       0.47144648 0.15518299 0.22022071 0.22388582
000020 f7 c6 c3 bb bd b7 5b 3f 4f b7 9c 3e 97 fe 51 3e
       -0.005974646 0.8582724 0.30608603 0.20507275
000030 28 10 c7 3e 76 57 37 3e f6 4a d0 3e 13 c5 86 3e
       0.38879514 0.17904457 0.4068219 0.2632223
000040 bc 68 90 3e be ab 76 3e c8 71 44 3e 97 fb 86 3e
       0.28204906 0.24088952 0.19184029 0.26363823
000050 aa f7 7d 3e 97 8d 11 3e 85 f3 e4 3e 77 96 05 3f
       0.24801508 0.14214168 0.4471704 0.52182716
000060 db a5 80 3e ac 62 8e 3e f2 ed 08 bd 14 29 94 3e
       0.25126538 0.27809656 -0.033430047 0.2893759
000070 64 b8 2e 3e e5 12 4c 3e cf 4f 82 3e ad c9 65 3e
       0.17062527 0.19929083 0.25451514 0.22440214
000080 3c 29 ab 3e 48 b9 79 3e 63 4d f0 bc c5 85 2b 3e
       0.33429897 0.24387085 -0.029333776 0.16750248
000090 6a aa be 3e ed a8 14 3e de 48 22 bc 23 79 36 3e
       0.3723939 0.14517565 -0.009905068 0.17819647
0000a0 ee 8d 90 3e d0 d9 d6 3e 94 27 7f 3e 33 d2 fe 3d
       0.28233284 0.41963053 0.24917442 0.12442436
0000b0 90 f5 32 3e b3 08 2d bc 5b 5d 57 3e 5c b2 35 3e
       0.17476487 -0.010561156 0.21031706 0.1774382
0000c0 e1 88 cd 3e 41 1a 89 3e 24 14 89 3e b7 5e 10 bc
       0.40143493 0.26777843 0.2677318 -0.008811644
0000d0 fc 29 17 bc 12 35 93 bb e0 69 75 3e ba 4f 36 3e
       -0.009226318 -0.0044924105 0.2396617 0.17803851
0000e0 f2 4f e1 3e f9 eb 80 3e 56 38 d0 3e 28 33 79 3e
       0.44006306 0.25180033 0.4066798 0.24335921
0000f0 11 21 a5 3e 84 74 d0 3d b1 81 88 3e f5 79 bb 3e
       0.3225179 0.101784736 0.26661447 0.36616483
000100 8d 67 87 3e b0 d4 8b 3e 9e 91 ae 3e e3 50 ba 3e
       0.2644619 0.27310705 0.34095472 0.36389837
000110 49 ae 58 3e 9f 1f dc 3e 91 1a a7 3e 8a d1 9c 3e
       0.21160235 0.42992875 0.32637456 0.30628616
000120 9b a0 e5 3e 13 73 bf 3e 91 c3 70 3e b9 11 3e 3e
       0.44849095 0.37392482 0.23512103 0.18561448
000130 68 59 37 3e 15 0f 6c 3d 62 f3 86 3e fd 91 b4 3e
       0.179052 0.05763157 0.2635756 0.3526763
000140 46 80 42 3e 0e c4 5f 3e 81 db b2 3e a4 ce 09 3e
       0.18994245 0.21852133 0.34933093 0.13457733
000150 8a a8 8f 3e b1 5a ca 3e cd d5 50 3e 13 07 4c 3e
       0.28058273 0.39522317 0.20394059 0.19924574
000160 8c 0a cb 3e c7 c4 a2 3e a7 ff 7b 3e 62 53 c6 38
       0.39656484 0.31790754 0.24609242 9.456907e-05
000170 93 e9 88 3e 79 57 7f 3e c7 25 b2 3e 29 d9 78 3e
       0.26740703 0.24935712 0.34794447 0.2430159
000180 71 07 a2 3e 54 34 3f 3e 9f 77 75 3e b5 b3 0b 3e
       0.31646302 0.18672305 0.23971413 0.13642772
000190 fc 78 ac 3d a8 54 5f 3e d2 9d 99 3e 41 7a 87 3e
       0.084215134 0.21809638 0.3000322 0.2646046
0001a0 64 5b 99 3e c6 3d 14 3e 5b 4d 76 3e c0 3a a9 3e
       0.29952538 0.1447669 0.24052946 0.33052635
0001b0 23 ff e4 3e 51 74 82 3e 3c 10 bc 3e 3f 2d 32 3e
       0.44725904 0.25479367 0.36731136 0.17400073
0001c0 e0 57 92 3e 2e ae ef 3e 0d df 9a 3d 2f 5a 80 3e
       0.28582668 0.46812576 0.07562075 0.25068805
0001d0 3e b2 3b bc 2a a5 b5 3e 1e f3 70 3e 89 01 76 3e
       -0.0114560705 0.35477573 0.23530242 0.24024023
0001e0 e5 ff 8b 3e f7 47 79 3e 9e 87 43 3d 60 c4 3b 3d
       0.2734367 0.24343859 0.047736757 0.045841575
0001f0 46 e9 16 3f 2d 52 40 3e 8c 29 33 bc 76 8d e5 3e
       0.58949697 0.18781348 -0.0109351985 0.4483449
000200 bb 66 4e 3e 32 a6 d1 3e 58 4a cf 3e ce 87 d2 3e
       0.20156376 0.4094711 0.40486407 0.41119236
000210 78 b2 76 3e 16 7f 07 3f 67 aa bc 3e 47 da 99 3e
       0.24091518 0.5292829 0.36848757 0.30049345
000220 27 71 a0 3b b6 81 93 3e 9d 7e 1c 3e 47 16 8e bb
       0.0048963013 0.288099 0.15282674 -0.0043361518
000230 a0 d4 a1 3e da 9b 89 3e 84 41 d6 3e 75 6b 76 3e
       0.31607533 0.26876718 0.4184686 0.24064429
000240 2c aa 63 3e 2b b0 83 3e d7 56 ab 3e 89 b3 54 3e
       0.22232884 0.25720343 0.3346469 0.20771612
000250 48 6a 02 3d df 2d 73 3e b2 41 ab 3e 31 75 c2 3e
       0.03183964 0.23747967 0.3344856 0.37980035
000260 3d f8 f4 3e 40 a2 b3 3e 9b 65 56 3e 39 c0 a7 3e
       0.4784564 0.35084724 0.20937197 0.32763842
000270 68 93 ac 3e 47 e9 d5 3e 94 b4 3a 3e 79 be 0c 3e
       0.33706212 0.4177954 0.18232948 0.13744535
000280 a8 d8 52 3e 5e f4 bf 3e 74 84 c9 3e 42 b5 c4 3e
       0.2059046 0.37491125 0.39358866 0.3841954
000290 ff ec f9 3e a8 0d b7 3e c8 7c a3 3e 3b 83 7b 3e
       0.48813626 0.35752606 0.31931138 0.24561779
0002a0 f7 29 a3 be ce 8b 82 3e af 81 26 bc 6e c7 74 3e
       -0.31867954 0.25497288 -0.010162755 0.23904201
0002b0 a6 d2 8a 3e 99 0b 24 3e d4 7e 7e 3e 99 1d 9f 3e
       0.27113837 0.16020049 0.24853069 0.3107727
0002c0 ff 9a 19 3e ac db c4 3e e4 2a 7d 3e 54 d8 93 3e
       0.15000533 0.38448846 0.24723393 0.28875983
0002d0 55 ac 13 3e 7d ee 0c 3f ef 4e 84 3e 4d 82 0c 3e
       0.14421208 0.55051404 0.25841472 0.13721581
0002e0 2a 20 b3 3e 4f 89 af 3e d4 f9 c0 3e 95 84 c3 3e
       0.34985477 0.34284446 0.37690604 0.3818709
0002f0 29 80 6a 3e da af aa 3e 77 9b f6 3e e4 b3 f1 3e
       0.22900452 0.3333729 0.48165485 0.47207558
000300 cc 56 e9 3e 27 d9 9d 3e ab 27 90 3e 0b 98 86 3e
       0.45574033 0.30829737 0.28155264 0.26287875
000310 4d 94 94 3e a1 39 08 3f 09 4d 14 bc 2e f3 df 3e
       0.29019395 0.53212935 -0.00905157 0.4374022
000320 61 e0 09 3f af 31 62 3e 44 73 16 3e 6a b4 a0 3e
       0.53858 0.22089265 0.14692408 0.31387645
000330 b1 3d db 3e 15 27 6d 3e d4 61 d0 3e a3 2f 9d 3e
       0.42820504 0.2315944 0.40699637 0.30700406
000340 92 5e 63 3e 54 7f 5d 3e b4 51 c0 bb 76 e6 96 3e
       0.22204044 0.21630603 -0.005869115 0.29472703
000350 00 53 8b 3e 0d ce b4 3e 5d 97 b7 3e e9 26 d8 3e
       0.2721176 0.35313454 0.3585767 0.42217186
000360 fd a2 87 3e e6 d8 72 3e fb d4 85 3e 13 c8 59 3e
       0.26491538 0.23715553 0.26139054 0.21267729
000370 36 de 74 3e 33 20 86 3e 6f 79 8a 3e b5 17 70 3e
       0.23912892 0.2619644 0.2704577 0.23446544
000380 d8 0f 3a 3e fc 2b 39 3e f5 a2 7c 3e 99 12 7d 3e
       0.18170106 0.18083185 0.24671538 0.24714126
000390 48 c4 8f 3e a1 11 13 3f cd b5 c0 3e 9f 71 ad 3e
       0.28079438 0.57448775 0.37638703 0.3387575
0003a0 fc fb c9 bb f0 d5 90 3e df 4e c2 3e f0 7c 03 3f
       -0.006164072 0.2828822 0.379508 0.51362514
0003b0 81 cc 1e 3e bc 0e 06 bc 9b 65 cf 3d 4c a1 86 3e
       0.155077 -0.008182224 0.101268016 0.26294935
0003c0 8b fc 67 3e 73 b5 5d 3e f5 c0 86 3e 06 5e af 3e
       0.22654931 0.21651249 0.2631909 0.34251422
0003d0 8c 96 d5 3d 47 0c 84 3e d5 6f f2 3e 2e fd 6e 3e
       0.10429105 0.25790617 0.47350946 0.23338768
0003e0 25 1f ab 3e 28 40 48 3e 0a 8c 1b 3e 9b a2 12 3e
       0.334222 0.19555724 0.1519014 0.14319842
0003f0 9c de 32 3e 57 e3 b3 3d f7 1c 88 3e ba 0a 9c 3e
       0.17467731 0.08783596 0.26584598 0.30476934

l2.weight f4 [64, 256]
000000 5e c5 d7 be 84 e3 78 3c 62 85 e5 3e 53 7e 36 3d
       -0.42142767 0.015190963 0.44828326 0.044554066
000010 43 c1 7b bc cb 8b 61 be 27 07 29 3d e9 3c 6d bb
       -0.015365901 -0.22025983 0.041266587 -0.0036199635
000020 cc 90 6a 3c d5 93 99 3f 6a 1a 15 be f8 92 c8 3c
       0.014316749 1.199824 -0.14560857 0.024484143
000030 1d 7e 7c bc fd 15 03 3d b1 da cd ba 8e 44 0a 3f
       -0.015410927 0.03200339 -0.0015705434 0.54010856
000040 19 db 13 3d 61 b6 69 bd 5e be ef 3c 78 7b 3e bd
       0.03609762 -0.057058696 0.029265579 -0.046504468
000050 2d 23 ae bc 92 00 10 bf 03 09 90 be d8 0f ec be
       -0.021257007 -0.5625087 -0.28131875 -0.46105838
000060 52 d8 e2 3b 4e be 7e 3e 03 90 3c 3f 25 f8 66 3d
       0.00692276 0.24877283 0.73657244 0.056388993
000070 a5 ce 90 bd 86 1b 5d 3e ce 0c b7 bd dd 7d b0 3c
       -0.07070664 0.2159253 -0.08937989 0.021544391
000080 a8 77 69 3e dd df 3d 3c c6 31 ac be 6a ac 8b be
       0.22799551 0.011589018 -0.33631724 -0.2727998
000090 aa f2 75 3d 20 f8 65 bd 48 94 91 3c df 16 83 3c
       0.060045876 -0.056144834 0.017770901 0.016002117
0000a0 20 94 f4 bd 2a 97 1a bf dc b5 18 3e e4 6a 16 be
       -0.11942315 -0.6038691 0.14913124 -0.14689213
0000b0 6f b7 98 be 9c 07 5e bb c1 b0 a5 be c7 d8 2b be
       -0.2982745 -0.0033879047 -0.32361415 -0.16781913
0000c0 72 be 3f ba 7e 26 66 bd be 92 ed bd ca 89 05 bc
       -0.00073144503 -0.056189053 -0.116002545 -0.008150527
0000d0 c9 c7 11 3c 0f f3 12 bc 4e 08 84 bd c2 04 55 be
       0.00889773 -0.0089690825 -0.064468965 -0.20802596
0000e0 5a bc ee 3c 49 d9 83 bd 65 0d a3 bf bd 56 ca 3c
       0.029142547 -0.06437928 -1.2738463 0.024699563
0000f0 7b d7 8f be 1d 85 70 bd 3f af f0 bd 78 c0 35 3d
       -0.28094086 -0.058720697 -0.117521755 0.044373006
000100 d4 00 e4 bd 5d ed 4e bd d3 72 9f 3c 9d 92 88 3d
       -0.111329705 -0.050519336 0.019463932 0.06668589
000110 f2 23 3f be bd 9a 2d 3c 2f 55 50 3c 28 6d 71 3d
       -0.18666056 0.0105959745 0.012715622 0.05894199
000120 7a 85 b9 be 9c 2d 19 3e 4c 26 dc 3c 89 cb 02 3d
       -0.36234647 0.14958805 0.02687373 0.031932388
000130 8c 6d 46 bd 69 db 6c be 3a 46 45 be fc cd 7c 3e
       -0.048444316 -0.23130573 -0.1926507 0.24687952
000140 be d2 09 3c 39 9d 37 3c ec 80 6d be 38 5f 3a 3e
       0.008412061 0.011206918 -0.23193711 0.18200386
000150 cf 4f 8c 3e b0 a0 8f 3d ad a3 46 be 49 ae 73 be
       0.2740464 0.070130706 -0.19398375 -0.23796953
000160 0c 8e 87 bd a3 8d 92 3c 6d 16 9e 3c 91 11 e6 3f
       -0.0661889 0.017889803 0.019297803 1.7974111
000170 e3 9b 53 3e e8 4a e3 bd 8f 15 46 3b 17 78 19 3d
       0.20664935 -0.110982716 0.0030225252 0.037468042
000180 03 e3 87 3d 1d 7a a3 be 20 a2 c9 bd 28 61 68 3d
       0.06635096 -0.31929103 -0.09845376 0.05673328
000190 ba 7a 55 bd 48 56 f9 3d 27 b6 d7 3b ea 33 a4 3e
       -0.052118994 0.1217466 0.0065829935 0.32070857
0001a0 aa 58 09 3d 71 8c e2 3d 4c 17 a8 bd 05 b4 73 be
       0.033531822 0.11061943 -0.082075685 -0.23799141
0001b0 d3 df ed bc 47 9f 6e bd f6 82 23 3e 16 66 81 be
       -0.029037392 -0.058257367 0.15967926 -0.25273198
0001c0 03 6d 28 bc ff 75 ee be a7 a6 41 bd b0 e8 98 bd
       -0.010279897 -0.465744 -0.047278073 -0.074662566
0001d0 c0 e9 24 3c 6d 26 bf bd f3 76 63 3e fa 83 39 3e
       0.010065496 -0.09333501 0.22213344 0.18116751
0001e0 2a b4 49 be e9 98 9d 3c fe 2c ce 3d 23 00 40 be
       -0.19697633 0.019237952 0.10067175 -0.18750052
0001f0 bc 1a ea 3c 8a 35 d4 3b 8b 54 f3 3b fd 25 36 3f
       0.028577201 0.006476109 0.00742585 0.71151716
000200 ab 85 75 bb bd 3f fb 3b 3f a1 40 bc 48 c1 2f 3d
       -0.0037463706 0.0076675103 -0.011757194 0.042908937
000210 21 20 94 be dd af 81 b9 84 d2 55 3d 5c 60 55 bd
       -0.28930762 -0.00024735826 0.052202716 -0.05209385
000220 62 fc 84 3f e7 ee 11 be 58 cc 4a 3d d2 c1 80 3c
       1.0389521 -0.1425129 0.049511284 0.01571742
000230 57 bc 1b 3e 6a 53 01 3d 59 3a 66 3d fe 55 4f 3e
       0.15208565 0.03157369 0.05620799 0.20247647
000240 3c 4e 15 3e c6 a7 8c 3c 31 bc 04 3d de 85 9a be
       0.14580625 0.017169844 0.032406036 -0.30180258
000250 ae 4e 8e be 82 08 15 3e 2a fd 30 bd d6 e7 9e 3c
       -0.27794403 0.14554027 -0.043210186 0.019397657
000260 a1 05 60 3f 2b 21 41 3c e5 1e 46 3c ce 0f 26 bd
       0.8750859 0.011787693 0.012092327 -0.040542416
000270 d9 59 b8 bc 49 0c 3d 3d 2b ef 01 3d 5d 6d 06 be
       -0.02250378 0.046154294 0.03172223 -0.13127656
000280 c8 8b dc 3c 79 1a 6d 3d 73 ca e4 3c cf cc 41 3d
       0.026922122 0.057886574 0.027928567 0.04731446
000290 68 5d 68 3f fd 8e 0c bf 93 10 ab 3c 9c d6 30 bd
       0.90767527 -0.5490568 0.020881927 -0.043173417
0002a0 74 f5 ce 3d f8 0d 11 3d d8 77 bb 3b 32 64 5f bd
       0.1010541 0.035413712 0.0057210736 -0.054538913
0002b0 63 99 00 be 9b 67 82 be af 04 76 bd 16 92 13 be
       -0.12558512 -0.2546967 -0.06006306 -0.14411196
0002c0 0c c8 09 bf d6 08 d0 3e 0d 30 c3 bd f4 70 03 3e
       -0.5382087 0.4063174 -0.09530649 0.12836057
0002d0 1e fe 36 3d f0 bf 29 bb ff 77 4f 3c 8c 98 50 3e
       0.04467594 -0.0025901757 0.012662887 0.20370692
0002e0 a7 5d 67 3d 0b 2b b8 3d 87 90 c0 3e f7 77 e6 bc
       0.0564858 0.08992585 0.37610266 -0.028133376
0002f0 a4 22 f1 3c 58 15 0d 3d d6 82 81 3c ce 95 c0 bc
       0.029435463 0.034444183 0.015809458 -0.023508932
000300 62 2c 4c 3e c9 07 6a be 04 cb 3c bd 88 09 7d bd
       0.19938806 -0.22854532 -0.04609205 -0.061776668
000310 3a 95 0e 3d 80 ab 48 3f 6b ee 93 3b 43 ab 5a bf
       0.034810282 0.7838669 0.0045145056 -0.85417575
000320 d1 03 0b 3f 31 50 a5 3e f7 0d 24 bf 7d e5 9b 3c
       0.543027 0.32287744 -0.6408381 0.019030327
000330 d5 b5 85 be 4a 5f 53 3d 4b 6e e7 3e 11 7b 8a 3c
       -0.2611529 0.051604547 0.45201334 0.016904386
000340 d7 80 ba 3b 7c 20 1e 3d 5b 2e 85 bb 13 6c 59 3c
       0.0056916284 0.0386052 -0.004064364 0.013270396
000350 f7 f7 f5 be ae d9 5a bf 1a 74 0a bc 7b c1 cb be
       -0.48040745 -0.854884 -0.008450532 -0.3979605
000360 a4 a3 60 3c 78 30 a7 3c 53 65 20 3d fa 64 50 be
       0.01371089 0.020408854 0.03915913 -0.2035102
000370 50 c0 37 3d 93 f5 01 3d 67 0b 0a 3d df b9 ab 3c
       0.044861138 0.03172834 0.03370228 0.020962654
000380 ed 3c 30 3d 30 84 d5 3c b2 cc b4 3c 66 db c2 3c
       0.043026853 0.026064008 0.022070263 0.023786258
000390 3a 43 2d 3d 00 54 59 be a8 a2 92 be ed 65 87 bf
       0.04230044 -0.2122345 -0.28639722 -1.057798
0003a0 8c 2f ec 3e 91 0d 75 3e 03 b7 5b bb 02 bc b5 3a
       0.46130025 0.23930956 -0.0033525832 0.0013865235
0003b0 10 de 74 bd 5c 5f 2a 3c 76 65 0c bf 18 e8 4c 3c
       -0.059782088 0.010398712 -0.5484232 0.012506507
0003c0 05 09 10 3d ce 44 b3 be e2 8d 55 bd ab 3e 8c bd
       0.03516485 -0.3501343 -0.052137263 -0.068478905
0003d0 d9 81 7d bd 91 ee 1f 3d 36 17 c6 bc 36 05 bc 3c
       -0.06189141 0.039045874 -0.02418099 0.022951704
0003e0 bf aa 23 be c9 1d 4a bd a1 6a b8 3d b0 8f 6a be
       -0.15983103 -0.04934481 0.09004713 -0.22906375
0003f0 8a fe fb 3d 78 d7 cf bd 5f a0 48 3e b8 84 1e 3d
       0.12304409 -0.10148519 0.19592427 0.03870079

l2.bias f4 [64]
000000 8d 6b a2 3d 4d 9e 1f 3e 5b c9 c4 bb 0f 1e b3 bb
       0.0793067 0.1558773 -0.0060054488 -0.0054662297
000010 a6 ef dc 3e eb d0 09 3e 2b c6 c4 bb e4 08 b1 3d
       0.43151587 0.13458602 -0.006005069 0.08644274
000020 31 8a de bb c1 d1 ea 3d 16 c4 c4 bb ad a5 55 3c
       -0.006791376 0.11465789 -0.0060048206 0.013039988
000030 89 34 82 3d 40 15 92 3d 13 c9 c4 bb 6c e8 c3 bb
       0.063576765 0.07132959 -0.006005415 -0.0059786346
000040 ac c6 c4 bb 99 ea cc bb 29 32 a7 bb ca 57 d6 3d
       -0.006005129 -0.006253552 -0.005102415 0.10465963
000050 ab 87 d7 3c fb 6e a2 3d 8b a0 d9 3d 64 7a f7 3d
       0.026309809 0.07931324 0.10626324 0.12083891
000060 e6 b7 c4 bb 4b 7b e9 3d 8c 9e de 3e 94 c6 c4 bb
       -0.0060033677 0.114004694 0.43480337 -0.0060051177
000070 80 bb c4 bb ac a8 c4 bb db 3a 90 3d ea 5a c4 bb
       -0.006003797 -0.0060015526 0.07042476 -0.005992283
000080 2c 4f 7c 3d 35 dd c2 bb 72 6c 9e 3d 54 b9 c4 bb
       0.06159894 -0.00594678 0.07735528 -0.006003538
000090 2b c3 dd bb f1 97 ad 3e da c7 c4 bb c2 ad c7 bb
       -0.0067676506 0.33904985 -0.0060052695 -0.0060937116
0000a0 e1 6c 41 3e 4b 86 d4 bb 8b 6b b3 3e 89 c5 c4 bb
       0.1888919 -0.0064857355 0.35042986 -0.0060049933
0000b0 2f c8 c4 bb 88 5f 06 3c 46 e2 a3 3d 52 bc 0a bc
       -0.006005309 0.008201487 0.080021426 -0.008467751
0000c0 ba 94 bc 3d 9b 08 c4 3d 28 0c 23 3e df 2d d2 bb
       0.09208055 0.09571954 0.15922606 -0.0064141597
0000d0 f8 28 5f 3d bc 9f 37 3e b0 9d c4 bb 36 c7 c4 bb
       0.05448243 0.17932028 -0.006000243 -0.006005193
0000e0 ff 35 92 3d 7e bd c4 bb 49 a4 cd bb 35 48 c7 bb
       0.07139205 -0.0060040345 -0.006275688 -0.006081606
0000f0 99 0b a1 3d 97 b9 51 3e f9 6f 9a bb 0b 1e db bb
       0.0786354 0.20480953 -0.004713055 -0.006686931

l3.weight f4 [4, 64]
000000 63 49 cd 3f e5 d2 38 3f 2d a3 d2 bb 3e 56 e3 3b
       1.6038021 0.721968 -0.0064281435 0.006937771
000010 f1 25 c3 be 80 b4 86 be 86 f0 af 3b f6 18 10 40
       -0.38114884 -0.26309586 0.005369249 2.2515235
000020 95 99 27 bc bc 12 a2 3f db 79 d9 3b 90 bf 90 3f
       -0.010229488 1.2661967 0.0066368408 1.130846
000030 4d cd af 3f c2 0a bc 3e e8 33 b9 3c e2 cc 2f bb
       1.3734528 0.36726958 0.022607759 -0.0026825
000040 6a 41 a7 3c da 1c 09 3d fb 22 14 bb 35 49 bb 3f
       0.020416934 0.03347478 -0.0022603858 1.4631716
000050 1f f5 a4 3f 49 ae 73 3f ad c9 89 3f 67 81 06 40
       1.2887305 0.95187813 1.0764672 2.101648
000060 c7 63 6c 3b 7e 82 e3 3f 2f 89 c7 be 3d b2 3f 3c
       0.0036070214 1.7774198 -0.3897185 0.01170021
000070 fd 9b a1 3b 7b 5d b9 3b c4 8e c5 3f eb 5a 11 bc
       0.0049319253 0.0056568957 1.5434194 -0.008871774
000080 3a 81 b5 3f 45 88 60 3c de 8b d0 3f 6e 4b 4b bc
       1.4180062 0.013704364 1.6292684 -0.012408121
000090 67 7a 9b 3c ed a1 0e bf b8 74 31 bc 3b 96 d1 3b
       0.018979264 -0.5571583 -0.010831051 0.0063960827
0000a0 69 b0 2c 3f 37 a3 61 3b 6a f4 63 be e3 cb ea 3b
       0.6745668 0.003442956 -0.22261205 0.0071654185
0000b0 19 72 3b 3c 11 dc 64 3f b1 27 9e 3c ff a4 96 bb
       0.011440777 0.89398295 0.019306036 -0.004597306
0000c0 1a 5d d0 3f 6b b0 c1 3f 0e d2 93 3f f6 35 09 3c
       1.6278412 1.5131963 1.1548479 0.008374682
0000d0 4c 83 ec 3e f2 42 37 3f 4c 98 b8 3b 93 8e ac bc
       0.46193922 0.71586525 0.0056333896 -0.021064078
0000e0 d4 4e 8c 3e c9 fd 8c bc 2b 83 dc 3b 61 3d 3b 3b
       0.2740389 -0.017210858 0.0067295036 0.002857052
0000f0 45 0e 8e 3f cd c1 84 3e 4b 0d 20 3b 6f c6 22 3b
       1.1098105 0.25929108 0.0024421986 0.0024837514
000100 a5 f6 94 bf e6 c6 3a 3f c7 bb 84 bc 99 64 80 bc
       -1.163777 0.72959745 -0.01620282 -0.015672969
000110 96 e2 0d be 4e a7 65 3f c7 0d a2 bb 54 fa 05 c0
       -0.13855967 0.8970841 -0.00494549 -2.0934038
000120 c5 ed c8 bb bb 1b af bf 5e 4a e2 bb eb 6a 50 3f
       -0.00613186 -1.3680338 -0.006905838 0.81413144
000130 69 9b 75 3e 9c 3a e7 3f da f0 b0 bb 00 e4 81 bc
       0.23985066 1.8064761 -0.0053998055 -0.01585579
000140 89 45 31 bc 49 29 e1 3b f8 f4 8b bb b5 c2 f6 bd
       -0.010819801 0.0068713767 -0.004271146 -0.12048856
000150 74 c2 7b 3f 0c b4 7a 3f eb 90 d9 bf 82 31 87 bf
       0.98343587 0.9793098 -1.699735 -1.0561984
000160 17 08 9e 39 ba 26 e6 bf a0 2d b0 bd 24 56 cb bb
       0.00030142136 -1.7980568 -0.08602452 -0.006205337
000170 c3 8f 10 3c 93 8b 38 3a c5 2e c5 be c0 fc 9e bb
       0.008823338 0.0007039841 -0.38512245 -0.0048519075
000180 6b 5e d6 bd 92 b0 4f 3c ee f1 ef be ad 13 5d 3c
       -0.104672275 0.012676375 -0.46864265 0.013493461
000190 84 74 43 bc 23 3a 3a 3e 23 16 bd bc 96 14 a1 bb
       -0.011929635 0.1818624 -0.023081845 -0.004915784
0001a0 8b ad 0f 3e 5c 88 3d 3c e6 bc b2 be 19 b3 0f 3b
       0.14031045 0.011568155 -0.34909743 0.002192682
0001b0 b7 4c 1c 3c 14 30 84 3f a0 65 9b 3f b3 b9 62 3c
       0.009539775 1.0327172 1.2140388 0.013838219
0001c0 fc 4a b5 bf 6f b1 b3 bf d9 78 04 3f 1c 83 c1 3a
       -1.4163508 -1.4038523 0.517469 0.0014763805
0001d0 c5 8a ad 3f ad d4 e4 3e a5 a5 96 ba 4e 64 c6 38
       1.3557974 0.4469351 -0.0011493458 9.460059e-05
0001e0 db 37 e8 3f 9d 74 1f 3c d6 6d b9 bc 3b 71 a5 3c
       1.8142046 0.009732393 -0.022635382 0.020195594
0001f0 9b ce 18 3f bb 78 43 3f 6f 69 87 bc 61 e6 f5 3b
       0.59690255 0.76356095 -0.016529767 0.00750427
000200 73 c1 8a bf b3 eb 98 bf 48 16 81 3c 52 6f 92 bb
       -1.0840286 -1.194693 0.015757695 -0.004468837
000210 0b f4 a8 3d 43 ac 80 bf 49 aa 94 3b 6f 1d 5a 3e
       0.082496725 -1.005257 0.004536901 0.2130029
000220 47 df e1 bb 19 a0 8e 3f f9 b0 2a bb d5 0d 89 bf
       -0.006893072 1.1142608 -0.0026045425 -1.0707346
000230 10 03 97 bf 5d 0f b2 bf d2 fe 40 3c 0d a7 1d 3c
       -1.179781 -1.3910939 0.011779504 0.009622348
000240 b3 9a 8b bb 54 fa a9 3b 0c 8a 46 bc f2 f2 57 3e
       -0.004260385 0.005187312 -0.012117874 0.2108877
000250 e4 b7 b5 bf a6 a3 9c bf 41 d5 6a 3f 79 74 3a 3f
       -1.4196744 -1.2237442 0.9173165 0.72833973
000260 26 67 67 3c e8 4c 2f 3e 31 b0 bd 3d 4b 3b 8c 3c
       0.014123714 0.17119181 0.092621215 0.017118117
000270 a5 f2 8b bc e9 62 d5 3a ea d1 82 bf 87 3e 9b bb
       -0.017083475 0.0016280088 -1.0220311 -0.0047376784
000280 9f 5c 93 bf 29 70 15 bc 88 70 a1 bf 7f 39 1a bc
       -1.1512641 -0.009120979 -1.2612467 -0.009413122
000290 04 23 40 bb 73 cd 3e 3e 03 d5 52 bc 7d 1f 20 bc
       -0.0029317746 0.1863306 -0.012868169 -0.009773132
0002a0 c3 8a 82 bf e0 7a af bc b6 9b cd 3e 6c 60 05 bc
       -1.0198597 -0.021420896 0.4015786 -0.008140665
0002b0 db 71 eb 3b ef 48 70 bf 41 c2 a5 bf d0 69 53 bb
       0.0071852035 -0.9386129 -1.2949907 -0.0032259114
0002c0 9b 98 5f 3f 3e 98 76 3f a9 f3 ab bf 8b a4 63 bb
       0.8734223 0.96326053 -1.3433734 -0.0034735526
0002d0 af 93 c0 bf 75 f7 9a bf 4e 1e 5e bc a4 f6 97 bb
       -1.504507 -1.2106768 -0.01355703 -0.004637556
0002e0 e2 d2 9b bf f7 a8 4c bb ce 79 af bb 79 4b a3 3b
       -1.2173731 -0.003122864 -0.0053550964 0.0049833623
0002f0 ab c0 ad bf b1 27 ad bf c2 50 17 bc ac 7d 0f ba
       -1.3574423 -1.3527738 -0.009235563 -0.00054737437
000300 94 ba 5c bf 83 e0 81 bf 21 c9 8b 3b 43 66 02 3c
       -0.86222196 -1.014664 0.00426592 0.007958951
000310 f5 59 53 3e 2d 42 59 3d 97 6b 29 bc 81 74 c8 bf
       0.20639785 0.053041626 -0.010340593 -1.5660554
000320 1b 54 b8 39 42 60 80 bf 3b 45 5f 3c 67 c6 7c bf
       0.00035157878 -1.0029376 0.013627346 -0.9874024
000330 ca 39 ac bf 8d a3 46 bf b6 14 ad 3a cc f6 5f 39
       -1.3455136 -0.7759331 0.0013205025 0.00021358876
000340 3f 74 97 3b ed d2 36 bc cf eb a0 bb 3e b9 e5 bf
       0.004622012 -0.011158687 -0.004910923 -1.7947156
000350 9d 20 99 bf ab 69 d2 bf aa 9c b9 bf 98 4f 0b c0
       -1.1963078 -1.6438497 -1.4500935 -2.176733
000360 7f 67 01 bc bf 5e 8a bf 21 e8 44 3e 3e 4e 95 3c
       -0.007898211 -1.0810164 0.19229175 0.018225785
000370 68 70 a3 ba 67 d0 f8 3b 44 db b6 bf 63 31 91 bb
       -0.0012469413 0.007593203 -1.4285665 -0.004430936
000380 cf a4 a4 bf 7f e3 2c 3b fe 18 bf bf bc e4 2e bc
       -1.2862796 0.0026380715 -1.4929502 -0.010674652
000390 5b 37 42 3c 0e d0 14 3f 63 37 cd 3c 0c 1c 79 3c
       0.011854018 0.58129966 0.025050825 0.015204441
0003a0 42 3a 42 bf 0e 57 89 3b e9 f6 8e 3d 76 69 a5 bb
       -0.75870144 0.004191286 0.06980688 -0.0050479723
0003b0 0b 73 9a bb 64 be 6d bf 77 ce 4f bc da a6 ed bb
       -0.004713421 -0.9286864 -0.012683502 -0.0072525563
0003c0 61 6b 98 bf c0 9e 8b bf 5c 5a ac bf 78 9c 0d 3c
       -1.190777 -1.0907822 -1.3465075 0.008643262
0003d0 d3 4e 01 bf 8d fb 4f bf d2 38 0b 3c 94 aa f1 3a
       -0.505109 -0.8124321 0.008497434 0.0018437677
0003e0 e0 93 54 bf 8e 43 16 bc 8a 0e 24 3b ae ed 30 bb
       -0.8303814 -0.00917138 0.002503308 -0.0026997137
0003f0 93 22 b8 bf 21 ec 02 bf 4d d1 9a 3b c8 b1 2e bc
       -1.4385551 -0.51141554 0.0047246576 -0.010662504

l3.bias f4 [4]
000000 dd 71 d4 be 7e 9d 60 be 5d 7c 91 bc e8 de 54 3e
       -0.4149312 -0.21935079 -0.017759496 0.20788157
